epoch=179.checkpoint.pth.tar (torch, 121695 bytes, 4 tensors)

embed_user.weight f4 [4886, 3]
-0.12158905 0.06476055 -0.057474714 -0.11266352 0.06876471 -0.057053518 -0.11073192 0.07218307
-0.057572465 -0.116202295 0.07602675 -0.04958937 -0.12721908 0.07837459 0.008266374 -0.119516715
0.06588924 -0.054850385 -0.10728237 0.07868396 -0.054580916 -0.11478292 0.080382206 -0.060762074
-0.11610414 0.08540575 -0.02725328 -0.119697876 0.060909443 -0.06297371 -0.106979884 0.08201917
-0.051607244 -0.11630242 0.08836771 -0.020767314 -0.118445225 0.0667178 -0.05463207 -0.11628325
0.07240649 -0.05481559 -0.1190989 0.07395761 -0.054274905 -0.11773365 0.08335845 -0.028744593
-0.122435406 0.065390565 -0.051755186 -0.11597475 0.07477579 -0.049215093 -0.12242726 0.06540659
-0.058880482 -0.09598893 0.099888004 -0.051792536 -0.11695272 0.06091294 -0.056213107 -0.09161593
0.07601591 -0.056070823 -0.105595656 0.09463424 -0.03844687 -0.10704785 0.10364745 0.027281009
-0.12188921 0.05812139 -0.057558272 -0.09526346 0.0978396 -0.049484726 -0.12045434 0.06384108
-0.059242204 -0.11833832 0.07097727 -0.05652052 -0.07642031 0.04458016 -0.073881894 -0.08878155
0.06587949 -0.05410331 -0.093678914 0.10783084 -0.03233212 -0.12034295 0.088930294 -0.0008227378
-0.1151284 0.06852173 -0.057165388 -0.11226304 0.07560757 -0.052631274 -0.07641267 0.03878232
-0.0647641 -0.10886894 0.055258095 -0.06202773 -0.12676685 0.0700453 -0.03541509 -0.118304506
0.0884292 -0.010674422 -0.10849394 0.07853414 -0.053992834 -0.11561701 0.06955829 -0.05438032
-0.122870736 0.07680188 -0.04371602 -0.11884412 0.07236394 -0.060542084 -0.10965721 0.08205344
-0.05241197 -0.10817845 0.0834726 -0.06463406 -0.12799174 0.077555746 -0.031910647 -0.1025344
0.08202889 -0.06183484 -0.11391998 0.07406537 -0.05878365 -0.091575295 0.10407629 -0.05580162
-0.0949865 0.0424527 -0.066610955 -0.12323243 0.08202822 -0.019759495 -0.110878676 0.07711918
-0.05870859 -0.11664229 0.09393991 0.022165235 -0.11915836 0.053157274 -0.059010915 -0.11240784
0.10028276 0.008968122 -0.11998459 0.06861219 -0.059414115 -0.1203812 0.06507565 -0.061552137
-0.122501954 0.06298518 -0.057065714 -0.11887645 0.068717495 -0.05504034 -0.097550906 0.09546717
-0.05357093 -0.114408456 0.06342911 -0.05742525 -0.10333799 0.09162622 -0.05141097 -0.1202991
0.06480212 -0.055810004 -0.07224617 0.13359092 -0.02399019 -0.11765013 0.0817486 -0.036817677
-0.09738999 0.10123928 -0.052367177 -0.10568122 0.087612145 -0.058859292 -0.11362605 0.06886552
-0.061457146 -0.12059754 0.06407092 -0.056560542 -0.10425077 0.10411887 0.03996274 -0.10376648
0.0743271 -0.052853648 -0.1203418 0.061323956 -0.052202493 -0.12409062 0.058890563 -0.05949339
-0.11799849 0.073539 -0.045412324 -0.10395494 0.061086405 -0.062469557 -0.11991638 0.08868374
-0.015540846 -0.114832185 0.07663737 -0.055148292 -0.10949791 0.07755424 -0.05457744 -0.10684519
0.087093666 -0.05176026 -0.0960284 0.101425126 -0.057402886 -0.109974764 0.07598712 -0.05253052
-0.11241795 0.07254522 -0.051580764 -0.1087549 0.08401731 -0.04615614 -0.10979441 0.06143762
-0.052344427 -0.10869662 0.087412976 -0.050778415 -0.11192581 0.07786881 -0.055796914 -0.10823463
00000000: ae03 f9bd 2ea1 843d 9b6a 6bbd 22bc e6bd
00000010: 83d4 8c3d f3b0 69bd 6bc7 e2bd b8d4 933d
00000020: 1bd1 6bbd 78fb edbd eab3 9b3d 391e 4bbd
00000030: b845 02be db82 a03d af6f 073c 2ec5 f4bd
00000040: f0f0 863d ccaa 60bd dcb6 dbbd 0e25 a13d
00000050: 3d90 5fbd 4f13 ebbd 6d9f a43d a7e1 78bd
00000060: 02c8 edbd 36e9 ae3d 4542 dfbc 2924 f5bd
00000070: 2e7c 793d 5cf8 80bd 4518 dbbd abf9 a73d
00000080: 1e62 53bd f72f eebd 21fa b43d 3720 aabc
00000090: 6993 f2bd 58a3 883d e1c5 5fbd ea25 eebd
000000a0: db49 943d 5086 60bd 20ea f3bd 1677 973d
000000b0: 5d4f 5ebd 571e f1bd d6b7 aa3d c879 ebbc
000000c0: 6abf fabd 7deb 853d 3ffd 53bd 2b84 edbd
000000d0: 0d24 993d c495 49bd 25bb fabd e4f3 853d
000000e0: a92c 71bd d895 c4bd 1592 cc3d 6924 54bd
000000f0: e884 efbd d97f 793d b73f 66bd 22a1 bbbd
00000100: 3bae 9b3d 85aa 65bd 8942 d8bd 99cf c13d
00000110: 777a 1dbd e73b dbbd 1d45 d43d 6c7c df3c
00000120: 0da1 f9bd b210 6e3d 39c2 6bbd 7d19 c3bd
00000130: 2160 c83d 7fb0 4abd c4b0 f6bd 1dbf 823d
00000140: f4a7 72bd 5c5b f2bd 885c 913d 1082 67bd
00000150: 4082 9cbd b099 363d 644f 97bd 1ad3 b5bd
00000160: d3eb 863d 6f9b 5dbd bbda bfbd 6ad6 dc3d
00000170: af6e 04bd 5d76 f6bd 1621 b63d 00ad 57ba
00000180: 70c8 ebbd 1f55 8c3d 4126 6abd 2aea e5bd
00000190: 24d8 9a3d e493 57bd 3f7e 9cbd 36da 1e3d
000001a0: 0aa3 84bd aef6 debd 5056 623d ca10 7ebd
000001b0: 2bcf 01be e973 8f3d 6a0f 11bd a249 f2bd
000001c0: 5e1a b53d c5e3 2ebc 1232 debd 82d6 a03d
000001d0: 9727 5dbd 9cc8 ecbd 9474 8e3d e6bd 5ebd
000001e0: a7a3 fbbd 4e4a 9d3d 920f 33bd 8c64 f3bd
000001f0: 8c33 943d fafa 77bd f693 e0bd a20b a83d
00000200: efad 56bd aa8c ddbd aff3 aa3d dd5e 84bd
00000210: 4410 03be 8cd5 9e3d bdb4 02bd 8efd d1bd
00000220: c3fe a73d 8746 7dbd e14e e9bd 96af 973d
00000230: 20c7 70bd d48b bbbd f325 d53d 3d90 64bd
00000240: 4888 c2bd e2e2 2d3d 536b 88bd 4961 fcbd
00000250: 69fe a73d aade a1bc 5c14 e3bd a9f0 9d3d
00000260: 6b78 70bd 27e2 eebd 9163 c03d de93 b53c
00000270: 4c09 f4bd 71bb 593d 6eb5 71bd 1536 e6bd
00000280: 0c61 cd3d 08ef 123c 7bba f5bd 8c84 8c3d
00000290: 375c 73bd 6b8a f6bd 6246 853d 181e 7cbd
000002a0: 4ee2 fabd 60fe 803d bdbd 69bd 7f75 f3bd
000002b0: c2bb 8c3d fb71 61bd c5c8 c7bd 4b84 c33d
000002c0: 316d 5bbd fb4e eabd 1fe7 813d bd36 6bbd
000002d0: dea2 d3bd 87a6 bb3d 4f94 52bd 605f f6bd
000002e0: f9b6 843d 0899 64bd cdf5 93bd 0fcc 083e
000002f0: 1387 c4bc 8df2 f0bd cf6b a73d 22ce 16bd
00000300: 6774 c7bd 8a56 cf3d f77e 56bd 656f d8bd
00000310: ff6d b33d 7116 71bd c6b4 e8bd 5e09 8d3d
00000320: 7dba 7bbd d8fb f6bd 9d37 833d 07ac 67bd
00000330: 6d81 d5bd 463c d53d f8af 233d 8583 d4bd
00000340: ce38 983d 117d 58bd c375 f6bd d42e 7b3d
00000350: 48d2 55bd 3923 febd 3b37 713d 57af 73bd
00000360: 31a9 f1bd 9d9b 963d 4602 3abd 54e6 d4bd
00000370: bd35 7a3d 14e0 7fbd b896 f5bd d29f b53d
00000380: 089f 7ebc 232d ebbd 0ef4 9c3d 2de3 61bd
00000390: 7140 e0bd c2d4 9e3d 988c 5fbd a7d1 dabd
000003a0: 2a5e b23d 9102 54bd 8aaa c4bd fab7 cf3d
000003b0: 4a1f 6bbd 733a e1bd 239f 9b3d 3e2a 57bd
000003c0: 623b e6bd 9792 943d 5a46 53bd e4ba debd
000003d0: 4411 ac3d 380e 3dbd e4db e0bd 04a6 7b3d
000003e0: 1c67 56bd 559c debd 9305 b33d 07fd 4fbd
000003f0: 5c39 e5bd af79 9f3d 4e8b 64bd 1eaa ddbd

embed_item.weight f4 [4804, 3]
-0.10860627 0.08047089 -0.050631046 -0.11115816 0.06675216 -0.053157177 -0.11443019 0.07836903
-0.05076554 -0.106879644 0.070623316 -0.048801668 -0.026617466 0.13878265 0.0151765905 -0.11086348
0.08138347 -0.050976813 -0.10608991 0.0884255 -0.051640976 -0.115282714 0.0749193 -0.04119719
-0.11147208 0.080106094 -0.054281108 -0.10983342 0.08993193 -0.045302935 -0.107389055 0.07317415
-0.05176768 -0.110413775 0.091043465 -0.040792074 -0.088996984 0.11584612 -0.03773697 -0.11271662
0.08011181 -0.052175634 -0.08162539 0.121102065 -0.042496063 -0.11441752 0.08112056 -0.05005965
-0.10379688 0.09887929 -0.04652297 -0.0945388 0.10880472 -0.047134783 -0.115167946 0.08035789
-0.049118347 -0.08919849 0.11392156 -0.041142054 -0.08650882 0.12643673 -0.025538538 -0.1170063
0.07882001 -0.050709598 -0.11255048 0.071812674 -0.044584367 -0.103078246 0.10351333 -0.04408335
-0.11242395 0.074148454 -0.054054603 -0.10225156 0.068369925 -0.050501447 -0.09979284 0.085264824
-0.046823308 -0.09936793 0.09674447 -0.04981632 -0.11475896 0.08409408 -0.04723788 -0.10341135
0.06352948 -0.049721442 -0.109558485 0.07780524 -0.0490251 -0.0718966 0.12444067 -0.036352955
-0.05138231 0.1280547 -0.034824234 -0.11098552 0.08492931 -0.049363304 -0.05132154 0.12805788
-0.032934707 -0.105081424 0.0885752 -0.049528986 -0.111361645 0.085346974 -0.04340274 -0.11101882
0.073328294 -0.049666926 -0.058607165 0.12137877 -0.044009313 -0.10649924 0.095644414 -0.046065275
-0.1061662 0.09251442 -0.04974354 -0.10935086 0.08449751 -0.05521992 -0.11935175 0.079392
-0.043630507 -0.11253185 0.07345993 -0.05103201 -0.11629105 0.07910394 -0.049293898 -0.11023461
0.076812364 -0.05257405 -0.11172969 0.07808093 -0.051981162 -0.11417747 0.08374883 -0.054226853
-0.11388839 0.07884844 -0.05523741 -0.0980653 0.08211778 -0.052965272 -0.10823689 0.07447695
-0.05533785 -0.113890216 0.07611077 -0.048577175 -0.094886735 0.10474327 -0.04827918 -0.089646585
0.10939021 -0.055275586 -0.10738275 0.079747 -0.05563049 -0.11032138 0.068769634 -0.054047704
-0.030600661 0.1428293 -0.011966929 -0.10908795 0.07026611 -0.046988703 -0.11644272 0.07290826
-0.047160536 -0.11020816 0.08014419 -0.049955096 -0.084457286 0.11542559 -0.05340636 -0.08809157
0.07408367 -0.057972386 -0.11216518 0.08148987 -0.048590254 -0.096011735 0.10693751 -0.046324898
-0.116015434 0.0759642 -0.052050427 -0.11315553 0.079812035 -0.04824832 -0.11419273 0.07344818
-0.048468377 -0.111608736 0.08292709 -0.04538129 -0.11014148 0.077731036 -0.04835608 -0.11748046
0.07439641 -0.048915096 -0.1062548 0.09624731 -0.041967016 -0.11090905 0.08349817 -0.045778263
-0.111553095 0.077295214 -0.051033776 -0.11247992 0.07782545 -0.043819524 -0.10291809 0.079213455
-0.047613975 -0.03433078 0.1453172 -0.009716585 -0.10279026 0.08131154 -0.052112028 -0.11623679
0.078976355 -0.0463123 -0.096898876 0.09726594 -0.040499646 -0.11342017 0.082156174 -0.04689646
-0.04165139 0.13630496 0.053398594 -0.0782703 0.119056575 -0.035037447 -0.10057904 0.10005464
-0.0445888 -0.11130834 0.07545434 -0.054428257 -0.11888692 0.08228788 -0.04402171 -0.11877296
00000000: f76c debd eccd a43d 8062 4fbd e4a6 e3bd
00000010: 5bb5 883d 57bb 59bd 605a eabd f17f a03d
00000020: 87ef 4fbd b7e3 dabd f5a2 903d 42e4 47bd
00000030: df0c dabc 0a1d 0e3e 3ca7 783c 640c e3bd
00000040: 60ac a63d 10cd 50bd ab45 d9bd 6e18 b53d
00000050: 7d85 53bd 5819 ecbd 4a6f 993d 62be 28bd
00000060: 794b e4bd aa0e a43d de55 5ebd 58f0 e0bd
00000070: 3b2e b83d 928f 39bd cbee dbbd 54dc 953d
00000080: 590a 54bd 9e20 e2bd ff74 ba3d 9715 27bd
00000090: 0d44 b6bd bb40 ed3d 1592 1abd f9d7 e6bd
000000a0: a911 a43d 1eb6 55bd 362b a7bd 5c04 f83d
000000b0: 5a10 2ebd bc53 eabd 8922 a63d 590b 4dbd
000000c0: 7593 d4bd 3a81 ca3d df8e 3ebd 8f9d c1bd
000000d0: 02d5 de3d 6710 41bd 2cdd ebbd ad92 a43d
000000e0: 5230 49bd b3ad b6bd b54f e93d 9284 28bd
000000f0: 892b b1bd a178 013e 3236 d1bc 00a1 efbd
00000100: 636c a13d deb4 4fbd de80 e6bd 8612 933d
00000110: 199e 36bd b01a d3bd ccfe d33d be90 34bd
00000120: 873e e6bd 25db 973d 5c68 5dbd 4469 d1bd
00000130: 8805 8c3d 9bda 4ebd 3060 ccbd 539f ae3d
00000140: ccc9 3fbd 6a81 cbbd f721 c63d 330c 4cbd
00000150: bf06 ebbd 8439 ac3d 827c 41bd 54c9 d3bd
00000160: be1b 823d b6a8 4bbd 3360 e0bd 5b58 9f3d
00000170: 8bce 48bd 863e 93bd c0da fe3d d6e6 14bd
00000180: 4276 52bd c520 033e dba3 0ebd 604c e3bd
00000190: 6bef ad3d 2d31 4abd 8936 52bd 9b21 033e
000001a0: 8be6 06bd ee34 d7bd ea66 b53d e8de 4abd
000001b0: 9311 e4bd 65ca ae3d 12c7 31bd d65d e3bd
000001c0: 252d 963d 8c6f 4bbd 110e 70bd 6f95 f83d
000001d0: 1c43 34bd 461c dabd 38e1 c33d f1ae 3cbd
000001e0: aa6d d9bd 3378 bd3d e2bf 4bbd 58f3 dfbd
000001f0: 080d ad3d 482e 62bd b16e f4bd 4698 a23d
00000200: e7b5 32bd 1977 e6bd 2972 963d f106 51bd
00000210: 012a eebd 3f01 a23d 66e8 49bd afc2 e1bd
00000220: cd4f 9d3d e357 57bd 89d2 e4bd e5e8 9f3d
00000230: 33ea 54bd e1d5 e9bd 8284 ab3d fa1c 5ebd
00000240: 513e e9bd 4a7b a13d 9f40 62bd 76d6 c8bd
00000250: 5e2d a83d 1df2 58bd 4dab ddbd 5f87 983d
00000260: f1a9 62bd 463f e9bd f7df 9b3d dcf8 46bd
00000270: fa53 c2bd a483 d63d 64c0 45bd a198 b7bd
00000280: f907 e03d a768 62bd 7deb dbbd 6552 a33d
00000290: ccdc 63bd 2df0 e1bd 18d7 8c3d 2061 5dbd
000002a0: 3dae fabc d841 123e f010 44bc 8169 dfbd
000002b0: aee7 8f3d 3a77 40bd 8579 eebd ed50 953d
000002c0: 682b 41bd d1b4 e1bd a322 a43d b79d 4cbd
000002d0: f1f7 acbd 4064 ec3d a1c0 5abd 5a69 b4bd
000002e0: 2eb9 973d 7474 6dbd dcb6 e5bd 29e4 a63d
000002f0: 9306 47bd cda1 c4bd 0e02 db3d 2dbf 3dbd
00000300: 8099 edbd 1e93 9b3d d432 55bd 16be e7bd
00000310: 7e74 a33d 08a0 45bd e1dd e9bd 006c 963d
00000320: c786 46bd 1f93 e4bd aed5 a93d bbe1 39bd
00000330: db91 e1bd 7331 9f3d 0611 46bd 9899 f0bd
00000340: 255d 983d 325b 48bd 1e9c d9bd 4f1d c53d
00000350: 9be5 2bbd 4924 e3bd 1701 ab3d fd81 3bbd
00000360: f375 e4bd f44c 9e3d cb08 51bd df5b e6bd
00000370: f362 9f3d 1a7c 33bd b8c6 d2bd aa3a a23d
00000380: df06 43bd 6f9e 0cbd 08ce 143e 5032 1fbc
00000390: b383 d2bd aa86 a63d 6c73 55bd 8e0d eebd
000003a0: 5bbe a13d f7b1 3dbd eb72 c6bd 5d33 c73d
000003b0: f5e2 25bd d648 e8bd 7f41 a83d 8116 40bd
000003c0: a69a 2abd 8793 0b3e 7cb8 5a3d 2e4c a0bd
000003d0: efd3 f33d 6d83 0fbd 62fc cdbd 72e9 cc3d
000003e0: bfa2 36bd a1f5 e3bd ce87 9a3d 2af0 5ebd
000003f0: fc7a f3bd 8c86 a83d 1c50 34bd 3d3f f3bd

embed_user_pop.weight f4 [146, 3]
0.07012229 -0.13396002 -0.010511544 0.06980232 -0.13384277 -0.010971346 0.069227606 -0.133173
-0.01111174 0.06896923 -0.13276635 -0.01081763 0.067553826 -0.1318624 -0.0113051385 0.06672644
-0.13269867 -0.012016863 0.066073425 -0.13250165 -0.012473776 0.06598816 -0.1323697 -0.012087414
0.065314285 -0.13280474 -0.012692815 0.0657237 -0.1324998 -0.013195309 0.06547005 -0.1331139
-0.013001408 0.065840386 -0.13306767 -0.012688502 0.06494713 -0.13282907 -0.012657495 0.064672336
-0.13432947 -0.013614358 0.06497312 -0.13359426 -0.013306221 0.06530955 -0.13240841 -0.012920639
0.064575605 -0.13266563 -0.01346748 0.065147445 -0.13305132 -0.012807295 0.064254284 -0.13428944
-0.013969065 0.06494313 -0.13428168 -0.013453102 0.06539606 -0.13211755 -0.013229082 0.064932406
-0.13346429 -0.01354851 0.06308751 -0.13356695 -0.0138471285 0.064962886 -0.13205907 -0.013407556
0.064940095 -0.132737 -0.013121025 0.06365774 -0.13336352 -0.013693474 0.065084845 -0.13250817
-0.013105893 0.066110484 -0.13429071 -0.012789413 0.06515475 -0.13302621 -0.013370166 0.06631354
-0.13427643 -0.012588193 0.064867035 -0.13300598 -0.012795517 0.06592428 -0.13427188 -0.013276987
0.0641662 -0.1338359 -0.013787989 0.06523051 -0.13188475 -0.013096537 0.06520599 -0.1319363
-0.012561374 0.06569021 -0.13204876 -0.012531314 0.06615701 -0.13273773 -0.012576914 0.06463604
-0.13176522 -0.012784094 0.06439978 -0.13116883 -0.013113526 0.065126024 -0.13206062 -0.013552315
0.06417194 -0.13198125 -0.012661714 0.06414235 -0.13269323 -0.013054786 0.06608543 -0.13107853
-0.012083135 0.06432344 -0.13140963 -0.01349472 0.06427825 -0.13193733 -0.013489124 0.06405437
-0.1296021 -0.012683949 0.0634069 -0.13170308 -0.013929385 0.0648635 -0.13089973 -0.0123289805
0.06534495 -0.12897383 -0.012076878 0.06595953 -0.12938155 -0.011673179 0.06582602 -0.13219158
-0.012691791 0.06484619 -0.1319717 -0.012882713 0.063728146 -0.13211457 -0.013008335 0.06682733
-0.13033867 -0.01219951 0.06464314 -0.13135691 -0.012791729 0.06528456 -0.1306207 -0.012768361
0.06431697 -0.13102268 -0.012964804 0.06548061 -0.13299933 -0.01239387 0.06505724 -0.13117981
-0.012819989 0.0650317 -0.13065284 -0.012930867 0.06523012 -0.13186409 -0.012612583 0.064881384
-0.13330452 -0.013956006 0.06645727 -0.13312031 -0.012858313 0.06495647 -0.13353014 -0.013876862
0.06431431 -0.1299615 -0.012873486 0.06657265 -0.13070165 -0.012273873 0.06534414 -0.12931609
-0.011277399 0.06419863 -0.13271499 -0.013160838 0.0628963 -0.13127978 -0.013160884 0.0648314
-0.13142453 -0.013334522 0.06547332 -0.13099483 -0.011791403 0.0626443 -0.13097802 -0.014290311
0.06280408 -0.13225514 -0.014022661 0.06283748 -0.13139182 -0.0138032725 0.06508507 -0.13139679
-0.012374161 0.06594136 -0.1319865 -0.012911216 0.064639285 -0.13308313 -0.014067948 0.066005796
-0.13372652 -0.013605793 0.06409823 -0.12776804 -0.011887277 0.06569646 -0.13698906 -0.014444099
0.07939041 -0.13448149 -0.0065383855 0.06726607 -0.12756371 -0.010639775 0.06482225 -0.13021313
-0.011962433 0.065409616 -0.13407221 -0.013745257 0.06298975 -0.13125184 -0.013351483 0.06719087
00000000: 469c 8f3d d12c 09be 9c38 2cbc 85f4 8e3d
00000010: 140e 09be 29c1 33bc 34c7 8d3d 815e 08be
00000020: 040e 36bc bd3f 8d3d e7f3 07be 6e3c 31bc
00000030: a959 8a3d f006 07be 3039 39bc dfa7 883d
00000040: 29e2 07be 60e2 44bc 8151 873d 83ae 07be
00000050: cf5e 4cbc cd24 873d ec8b 07be 4a0a 46bc
00000060: 7fc3 853d f7fd 07be 86f5 4fbc 269a 863d
00000070: 07ae 07be 2331 58bc 2915 863d 034f 08be
00000080: dc03 55bc 53d7 863d e442 08be 6fe3 4fbc
00000090: 0003 853d 5804 08be 6261 4fbc ee72 843d
000000a0: aa8d 09be c20e 5fbc a110 853d efcc 08be
000000b0: 5602 5abc 03c1 853d 1296 07be 16b1 53bc
000000c0: 3740 843d 80d9 07be b5a6 5cbc 066c 853d
000000d0: 9b3e 08be b0d5 51bc c097 833d 2c83 09be
000000e0: 81de 64bc e700 853d 2381 09be 666a 5cbc
000000f0: 5fee 853d d349 07be cbbe 58bc 48fb 843d
00000100: ddaa 08be 92fa 5dbc 0634 813d c6c5 08be
00000110: 11df 62bc 430b 853d 7e3a 07be 5eab 5bbc
00000120: 50ff 843d 35ec 07be 91f9 56bc fd5e 823d
00000130: 7290 08be 985a 60bc 344b 853d 39b0 07be
00000140: 19ba 56bc ef64 873d 8183 09be b08a 51bc
00000150: db6f 853d 0638 08be 8a0e 5bbc 65cf 873d
00000160: c37f 09be b53e 4ebc 02d9 843d b832 08be
00000170: 4aa4 51bc 4f03 873d 917e 09be b887 59bc
00000180: 9269 833d 470c 09be 04e7 61bc 9397 853d
00000190: cc0c 07be dc92 56bc b88a 853d 4f1a 07be
000001a0: 39ce 4dbc 9788 863d ca37 07be 2450 4dbc
000001b0: 547d 873d 66ec 07be 670f 4ebc e65f 843d
000001c0: 76ed 06be 6074 51bc 08e4 833d 1f51 06be
000001d0: 1dda 56bc cb60 853d e63a 07be 870a 5ebc
000001e0: 946c 833d 1826 07be 1473 4fbc 105d 833d
000001f0: bce0 07be bee3 55bc cc57 873d 7339 06be
00000200: 57f8 45bc 02bc 833d 3f90 06be f518 5dbc
00000210: 51a4 833d 941a 07be 7d01 5dbc f02e 833d
00000220: 6ab6 04be 57d0 4fbc 7adb 813d 2cdd 06be
00000230: 1338 64bc 28d7 843d 940a 06be 7eff 49bc
00000240: 93d3 853d b711 04be 19de 45bc ca15 873d
00000250: 997c 04be dd40 3fbc cbcf 863d 3b5d 07be
00000260: 3bf1 4fbc 14ce 843d 9723 07be 0412 53bc
00000270: e783 823d 0b49 07be e920 55bc c4dc 883d
00000280: 8077 05be 74e0 47bc 9f63 843d 6d82 06be
00000290: 6694 51bc e9b3 853d 6fc1 05be 6332 51bc
000002a0: 9eb8 833d cf2a 06be 546a 54bc b31a 863d
000002b0: fa30 08be a90f 4bbc bb3c 853d 0054 06be
000002c0: ee0a 52bc 572f 853d dcc9 05be fddb 53bc
000002d0: 5f97 853d 6107 07be 02a5 4ebc 88e0 843d
000002e0: fb80 08be bba7 64bc c01a 883d b150 08be
000002f0: acab 52bc e607 853d 20bc 08be c75b 63bc
00000300: 39b7 833d a114 05be 50eb 52bc 3e57 883d
00000310: a7d6 05be 5b18 49bc 26d3 853d 706b 04be
00000320: d7c4 38bc 927a 833d 70e6 07be 8ea0 57bc
00000330: c6cf 803d 356e 06be c0a0 57bc 53c6 843d
00000340: 2794 06be 0a79 5abc e016 863d 8223 06be
00000350: bb30 41bc a84b 803d 1a1f 06be e921 6abc
00000360: 6d9f 803d e46d 07be 4ebf 65bc f0b0 803d
00000370: 948b 06be 1f27 62bc 524b 853d e18c 06be
00000380: febc 4abc 440c 873d 7827 07be 9189 53bc
00000390: 9a61 843d f246 08be 407d 66bc 0c2e 873d
000003a0: 9bef 08be d5ea 5ebc ef45 833d a0d5 02be
000003b0: dac2 42bc de8b 863d dc46 0cbe f1a6 6cbc
000003c0: 7097 a23d 84b5 09be f43f d6bb cbc2 893d
000003d0: 10a0 02be 7352 2ebc 87c1 843d 9756 05be
000003e0: 15fe 43bc 7af5 853d 3a4a 09be c933 61bc
000003f0: c500 813d e266 06be 2ec0 5abc 5e9b 893d

embed_item_pop.weight f4 [164, 3]
0.0860389 -0.07910496 0.010844169 0.08624223 -0.08371771 0.009420807 0.08704415 -0.08876261
0.008565744 0.08531537 -0.089304775 0.0076453467 0.08554154 -0.0936223 0.0066153575 0.08923158
-0.10011809 0.0065384177 0.08744519 -0.09893992 0.0060759946 0.08651722 -0.10417265 0.0044491477
0.09010941 -0.10621612 0.0054511926 0.0851486 -0.10566634 0.002692969 0.087306075 -0.111000806
0.0024393185 0.087356545 -0.11318464 0.0024152556 0.0856197 -0.111869566 0.0013653124 0.08631648
-0.11447537 0.0010999291 0.0853487 -0.11347331 0.001136072 0.08603351 -0.11334837 0.0015184287
0.084569834 -0.11520185 0.00039368187 0.08287281 -0.116676435 -0.000909428 0.08621731 -0.11721764
0.000126523 0.08494019 -0.115584284 0.0003211946 0.08490023 -0.11923995 -0.00012570262 0.08255758
-0.11738317 -0.0010019896 0.08251877 -0.11882938 -0.0018042328 0.0845894 -0.11756452 -0.000624122
0.08365216 -0.12223014 -0.0018547552 0.08299526 -0.12031388 -0.0017593647 0.081945 -0.12056391
-0.0021040877 0.0820398 -0.1247117 -0.0033158541 0.08106939 -0.11932224 -0.0025778061 0.082487114
-0.121799015 -0.0021282812 0.08186721 -0.119211584 -0.002885908 0.08131141 -0.121517494 -0.002884976
0.0806273 -0.12181427 -0.0037579644 0.08101417 -0.12547773 -0.0040186513 0.07981789 -0.121627994
-0.0032961136 0.08155639 -0.12534665 -0.0038852622 0.08181728 -0.122407414 -0.0027829409 0.080861956
-0.12689735 -0.00424502 0.080757745 -0.12246107 -0.003709721 0.08255255 -0.12336328 -0.0029504704
0.07945298 -0.12631896 -0.0054571405 0.07894044 -0.12358749 -0.0046602953 0.079743795 -0.1290951
-0.00585916 0.079818845 -0.12609984 -0.0045395866 0.07817712 -0.123431765 -0.00509158 0.07853999
-0.124420114 -0.0049640653 0.078664124 -0.124540314 -0.0048318454 0.081249915 -0.12355712 -0.0035725983
0.07963714 -0.12471935 -0.004596373 0.081300706 -0.12582245 -0.0036710147 0.07889268 -0.12513946
-0.0051718852 0.07744289 -0.12516126 -0.0057776184 0.07754175 -0.12687656 -0.006077696 0.08021994
-0.122749925 -0.0032131162 0.077085674 -0.12667342 -0.0060697827 0.074998684 -0.12746108 -0.007672387
0.075332515 -0.12650172 -0.0069925864 0.08025297 -0.13378115 -0.007075335 0.079948545 -0.1262191
-0.005163995 0.07848748 -0.12568815 -0.00569663 0.07658186 -0.12989584 -0.007869103 0.07624629
-0.12829734 -0.0071436022 0.07827074 -0.13168328 -0.0068880385 0.07558648 -0.12779206 -0.007927888
0.07507169 -0.12825668 -0.0074707917 0.077558495 -0.12734124 -0.0060866857 0.07662627 -0.12549132
-0.006322231 0.07937276 -0.12788026 -0.0058608768 0.07790583 -0.12942235 -0.006494943 0.074927025
-0.12630823 -0.0072292257 0.07572196 -0.12936915 -0.007851892 0.07581721 -0.127782 -0.0071405657
0.07761353 -0.13023365 -0.0070032165 0.07684806 -0.1288788 -0.0062396755 0.076359026 -0.13000041
-0.007914086 0.07632714 -0.12482083 -0.006076409 0.07609576 -0.1260772 -0.005744659 0.075516045
-0.12955566 -0.0071420567 0.075627066 -0.12831402 -0.0075777015 0.078310125 -0.12843534 -0.0061187954
0.075943805 -0.12807992 -0.007170584 0.076001 -0.12723751 -0.0064328727 0.07538437 -0.13171263
-0.008938239 0.07500266 -0.12907642 -0.007681659 0.07543341 -0.1309072 -0.008642392 0.07420208
00000000: 2a35 b03d c801 a2bd beab 313c c49f b03d
00000010: 3174 abbd ba59 1a3c 3444 b23d 2cc9 b5bd
00000020: 5657 0c3c d3b9 ae3d 6ce5 b6bd d185 fa3b
00000030: 6730 af3d 0cbd bfbd a4c5 d83b 0cbf b63d
00000040: b70a cdbd 3940 d63b 7716 b33d 03a1 cabd
00000050: 2319 c73b f12f b13d 7858 d5bd 28ca 913b
00000060: 488b b83d d687 d9bd eb9f b23b 6462 ae3d
00000070: 9867 d8bd 867c 303b 87cd b23d 6454 e3bd
00000080: f9dc 1f3b fde7 b23d 59cd e7bd 4449 1e3b
00000090: 6259 af3d df1b e5bd 48f4 b23a b2c6 b03d
000000a0: 1072 eabd 7f2b 903a 4dcb ae3d b264 e8bd
000000b0: 40e8 943a 5632 b03d 3123 e8bd 0306 c73a
000000c0: f332 ad3d f3ee ebbd 1667 ce39 38b9 a93d
000000d0: 0ef4 eebd ae66 6eba b392 b03d cd0f f0bd
000000e0: 42ab 0439 1ff5 ad3d 74b7 ecbd 0266 a839
000000f0: 2ce0 ad3d 1334 f4bd 0acf 03b9 f313 a93d
00000100: 9666 f0bd 3155 83ba 9aff a83d d15c f3bd
00000110: 027c ecba 353d ad3d abc5 f0bd 1e9c 23ba
00000120: d351 ab3d cc53 fabd 421b f3ba 6bf9 a93d
00000130: 2067 f6bd 7c9a e6ba c8d2 a73d 36ea f6bd
00000140: bce4 09bb 7c04 a83d d968 ffbd cd4e 59bb
00000150: b507 a63d 385f f4bd 69f0 28bb 01ef a83d
00000160: c371 f9bd a27a 0bbb ffa9 a73d 3425 f4bd
00000170: 8021 3dbb 9986 a63d 2ade f8bd de11 3dbb
00000180: ed1f a53d c379 f9bd 2e48 76bb c2ea a53d
00000190: 3c7d 00be e4ae 83bb 9077 a33d 1918 f9bd
000001a0: 9c03 58bb 0907 a73d df5a 00be e29f 7ebb
000001b0: d18f a73d bdb0 fabd 0062 36bb f49a a53d
000001c0: 61f1 01be cf19 8bbb 5164 a53d dfcc fabd
000001d0: ca1e 73bb 5011 a93d e3a5 fcbd ae5c 41bb
000001e0: 3eb8 a23d c259 01be d0d1 b2bb 87ab a13d
000001f0: 701b fdbd 64b5 98bb b750 a33d 8231 04be
00000200: 32fe bfbb 1078 a33d 5120 01be d0c0 94bb
00000210: 531b a03d cbc9 fcbd 45d7 a6bb 93d9 a03d
00000220: f9cf febd 99a9 a2bb a81a a13d fe0e ffbd
00000230: 7554 9ebb 5b66 a63d 840b fdbd 4122 6abb
00000240: cc18 a33d dc6c ffbd 2c9d 96bb fc80 a63d
00000250: 9ad7 00be 6895 70bb 7c92 a13d 8f24 00be
00000260: eb78 a9bb 619a 9e3d 462a 00be 2d52 bdbb
00000270: 36ce 9e3d eeeb 01be 6927 c7bb 5a4a a43d
00000280: 5064 fbbd 2593 52bb 18df 9d3d adb6 01be
00000290: 07e5 c6bb e998 993d 2885 02be a668 fbbb
000002a0: ef47 9a3d ab89 01be 1122 e5bb ab5b a43d
000002b0: edfd 08be 36d8 e7bb 10bc a33d 943f 01be
000002c0: bb36 a9bb 0bbe a03d 65b4 00be ccaa babb
000002d0: f3d6 9c3d 6a03 05be 69ed 00bc 0427 9c3d
000002e0: 6160 03be e114 eabb 694c a03d fbd7 06be
000002f0: 0eb5 e1bb 16cd 9a3d ecdb 02be f9e3 01bc
00000300: 30bf 993d b855 03be 8bcd f4bb fdd6 9e3d
00000310: be65 02be d272 c7bb 3cee 9c3d cc80 00be
00000320: b82a cfbb 308e a23d 0bf3 02be 990c c0bb
00000330: 188d 9f3d 4b87 04be 88d3 d4bb 5773 993d
00000340: f256 01be 24e3 ecbb 1d14 9b3d 5979 04be
00000350: 39a5 00bc 0e46 9b3d 49d9 02be 68fb e9bb
00000360: d8f3 9e3d f85b 05be 3d7b e5bb 8462 9d3d
00000370: cef8 03be 3176 ccbb 1f62 9c3d d41e 05be
00000380: 15aa 01bc 6751 9c3d 10a2 ffbd 9d1c c7bb
00000390: 18d8 9b3d 621a 01be b13d bcbb 28a8 9a3d
000003a0: 3daa 04be ea07 eabb 5de2 9a3d c064 03be
000003b0: 5e4e f8bb 0f61 a03d 8e84 03be 2d80 c8bb
000003c0: 6d88 9b3d 6227 03be 38f7 eabb 6aa6 9b3d
000003d0: 8d4a 02be d9ca d2bb 1f63 9a3d addf 06be
000003e0: b171 12bc ff9a 993d 9c2c 04be 6db6 fbbb
000003f0: d57c 9a3d 890c 06be d298 0dbc 43f7 973d
